User
python3 labelImg.py
Traceback (most recent call last):
  File "/home/josva/Music/pcbdefects/labelImg/labelImg.py", line 29, in <module>
    from libs.resources import *
ModuleNotFoundError: No module named 'libs.resources'

ChatGPT
The error message suggests that the Python module libs.resources could not be found. This issue commonly occurs when the required module is not installed or is not accessible in the Python environment.

To resolve this error, you can follow these steps:

Ensure that you have the required dependencies installed. The labelImg tool relies on various libraries, including PyQt5, lxml, and pyqt5-tools. Install these dependencies using the following command:

Copy code
pip install pyqt5 lxml pyqt5-tools
Verify that the libs directory containing the resources module is present in the correct location. It should be located within the labelImg directory. Double-check the directory structure to confirm that the resources.py file is inside the libs directory.

If you have cloned the labelImg repository from GitHub, make sure that you have the complete repository with all the necessary files. If you are missing any files or directories, it may cause this error.

Check the Python version you are using. Make sure you are using Python 3.x, as labelImg is written for Python 3. If you have both Python 2 and Python 3 installed, use the python3 command explicitly to run the script:

Copy code
python3 labelImg.py
By following these steps, you should be able to resolve the ModuleNotFoundError and successfully run the labelImg.py script.





User
still Traceback (most recent call last):
  File "/home/josva/Music/pcbdefects/labelImg/labelImg.py", line 29, in <module>
    from libs.resources import *
ModuleNotFoundError: No module named 'libs.resources'
ChatGPT
If you have followed the previous steps and are still encountering the ModuleNotFoundError for libs.resources, there might be an issue with the directory structure or the installation of the labelImg tool. Here are a few additional suggestions:

Confirm the correct directory structure: Make sure that the resources.py file is present within the libs directory. The directory structure should look like this:

markdown
Copy code
labelImg
├── labelImg.py
└── libs
    ├── resources.py
    └── ...
Check the PYTHONPATH environment variable: Ensure that the labelImg directory is included in your PYTHONPATH environment variable. You can set it temporarily by running the following command in your terminal:

bash
Copy code
export PYTHONPATH=/path/to/labelImg:$PYTHONPATH
Replace /path/to/labelImg with the actual path to the labelImg directory on your system.

Consider reinstalling the labelImg tool: If the issue persists, it might be worth reinstalling the labelImg tool. You can do this by following the installation instructions provided by the project's GitHub repository or using the following commands:

bash
Copy code
git clone https://github.com/tzutalin/labelImg.git
cd labelImg
pip install -r requirements/requirements-linux.txt
make qt5py3
These suggestions should help resolve the ModuleNotFoundError for libs.resources and enable you to run the labelImg.py script successfully.





User
i did it still Traceback (most recent call last):
  File "/home/josva/Music/pcbdefects/labelImg/labelImg.py", line 29, in <module>
    from libs.resources import *
ModuleNotFoundError: No module named 'libs.resources'
"
ChatGPT
If you have followed the previous suggestions and are still encountering the ModuleNotFoundError for libs.resources, it's possible that there is an issue with the labelImg tool itself or with the Python environment.

Here are a few additional steps you can try:

Ensure you are in the correct directory: Make sure you are running the labelImg.py script from the correct directory. Navigate to the labelImg directory in your terminal before running the command. You can use the cd command to change directories:

bash
Copy code
cd /home/josva/Music/pcbdefects/labelImg/
python3 labelImg.py
Update or reinstall the labelImg tool: It's possible that there is an issue with the labelImg tool itself. Try updating or reinstalling it by following these steps:

bash
Copy code
cd /home/josva/Music/pcbdefects/
rm -rf labelImg
git clone https://github.com/tzutalin/labelImg.git
cd labelImg
make qt5py3
python3 labelImg.py
Check for any conflicting installations: Double-check that there are no conflicting installations or multiple versions of Python on your system. Ensure that you are using the correct Python version (Python 3) and that the necessary dependencies are installed in the correct Python environment.

If none of the above suggestions resolve the issue, it's possible that there is a more specific issue with your environment or setup. In that case, I recommend reaching out to the project's GitHub repository or support forum for further assistance.





User
how to save bulk annotation ina afolder in labelImg
ChatGPT
To save bulk annotations in LabelImg, you can follow these steps:

Open LabelImg: Launch the LabelImg application on your system.

Open the image folder: Click on the "Open Dir" button in the toolbar or go to "File" > "Open Dir" and select the folder containing the images you want to annotate.

Start annotating: Use the annotation tools provided by LabelImg to draw bounding boxes or polygons around the objects you want to annotate in each image. You can use the toolbar or the hotkeys for convenience.

Save annotations for each image: After annotating an image, click on the "Save" button in the toolbar or go to "File" > "Save" to save the annotations for that particular image. Repeat this step for each image you annotate.

Repeat for all images: Continue annotating and saving annotations for each image in the folder until you have completed the annotation process for all the images.

Export annotations in XML format: Once you have finished annotating all the images, go to "File" > "Save As" and choose the "PascalVOC" format. This will save the annotations in XML format according to the Pascal VOC standard.

Select the destination folder: Choose the folder where you want to save the XML annotation files for all the images. It can be a separate folder or the same folder as the images.

Save annotations: Click on the "Save" button to save the XML annotation files in the specified folder. LabelImg will generate an XML file for each annotated image, containing the bounding box coordinates and class labels.

By following these steps, you can save bulk annotations for multiple images in LabelImg. The XML annotation files will allow you to use the annotated data for further processing or training object detection models.





User
images of width 3034 pixels and height of 1586 pixels write from this "[net]
batch=64
subdivisions=8
# Training
#width=512
#height=512
width=608
height=608
channels=3
momentum=0.949
decay=0.0005
angle=0
saturation = 1.5
exposure = 1.5
hue=.1

learning_rate=0.0013
burn_in=1000
max_batches = 500500
policy=steps
steps=400000,450000
scales=.1,.1

#cutmix=1
mosaic=1

#:104x104 54:52x52 85:26x26 104:13x13 for 416

[convolutional]
batch_normalize=1
filters=32
size=3
stride=1
pad=1
activation=mish

# Downsample

[convolutional]
batch_normalize=1
filters=64
size=3
stride=2
pad=1
activation=mish

[convolutional]
batch_normalize=1
filters=64
size=1
stride=1
pad=1
activation=mish

[route]
layers = -2

[convolutional]
batch_normalize=1
filters=64
size=1
stride=1
pad=1
activation=mish

[convolutional]
batch_normalize=1
filters=32
size=1
stride=1
pad=1
activation=mish

[convolutional]
batch_normalize=1
filters=64
size=3
stride=1
pad=1
activation=mish

[shortcut]
from=-3
activation=linear

[convolutional]
batch_normalize=1
filters=64
size=1
stride=1
pad=1
activation=mish

[route]
layers = -1,-7

[convolutional]
batch_normalize=1
filters=64
size=1
stride=1
pad=1
activation=mish

# Downsample

[convolutional]
batch_normalize=1
filters=128
size=3
stride=2
pad=1
activation=mish

[convolutional]
batch_normalize=1
filters=64
size=1
stride=1
pad=1
activation=mish

[route]
layers = -2

[convolutional]
batch_normalize=1
filters=64
size=1
stride=1
pad=1
activation=mish

[convolutional]
batch_normalize=1
filters=64
size=1
stride=1
pad=1
activation=mish

[convolutional]
batch_normalize=1
filters=64
size=3
stride=1
pad=1
activation=mish

[shortcut]
from=-3
activation=linear

[convolutional]
batch_normalize=1
filters=64
size=1
stride=1
pad=1
activation=mish

[convolutional]
batch_normalize=1
filters=64
size=3
stride=1
pad=1
activation=mish

[shortcut]
from=-3
activation=linear

[convolutional]
batch_normalize=1
filters=64
size=1
stride=1
pad=1
activation=mish

[route]
layers = -1,-10

[convolutional]
batch_normalize=1
filters=128
size=1
stride=1
pad=1
activation=mish

# Downsample

[convolutional]
batch_normalize=1
filters=256
size=3
stride=2
pad=1
activation=mish

[convolutional]
batch_normalize=1
filters=128
size=1
stride=1
pad=1
activation=mish

[route]
layers = -2

[convolutional]
batch_normalize=1
filters=128
size=1
stride=1
pad=1
activation=mish

[convolutional]
batch_normalize=1
filters=128
size=1
stride=1
pad=1
activation=mish

[convolutional]
batch_normalize=1
filters=128
size=3
stride=1
pad=1
activation=mish

[shortcut]
from=-3
activation=linear

[convolutional]
batch_normalize=1
filters=128
size=1
stride=1
pad=1
activation=mish

[convolutional]
batch_normalize=1
filters=128
size=3
stride=1
pad=1
activation=mish

[shortcut]
from=-3
activation=linear

[convolutional]
batch_normalize=1
filters=128
size=1
stride=1
pad=1
activation=mish

[convolutional]
batch_normalize=1
filters=128
size=3
stride=1
pad=1
activation=mish

[shortcut]
from=-3
activation=linear

[convolutional]
batch_normalize=1
filters=128
size=1
stride=1
pad=1
activation=mish

[convolutional]
batch_normalize=1
filters=128
size=3
stride=1
pad=1
activation=mish

[shortcut]
from=-3
activation=linear


[convolutional]
batch_normalize=1
filters=128
size=1
stride=1
pad=1
activation=mish

[convolutional]
batch_normalize=1
filters=128
size=3
stride=1
pad=1
activation=mish

[shortcut]
from=-3
activation=linear

[convolutional]
batch_normalize=1
filters=128
size=1
stride=1
pad=1
activation=mish

[convolutional]
batch_normalize=1
filters=128
size=3
stride=1
pad=1
activation=mish

[shortcut]
from=-3
activation=linear

[convolutional]
batch_normalize=1
filters=128
size=1
stride=1
pad=1
activation=mish

[convolutional]
batch_normalize=1
filters=128
size=3
stride=1
pad=1
activation=mish

[shortcut]
from=-3
activation=linear

[convolutional]
batch_normalize=1
filters=128
size=1
stride=1
pad=1
activation=mish

[convolutional]
batch_normalize=1
filters=128
size=3
stride=1
pad=1
activation=mish

[shortcut]
from=-3
activation=linear

[convolutional]
batch_normalize=1
filters=128
size=1
stride=1
pad=1
activation=mish

[route]
layers = -1,-28

[convolutional]
batch_normalize=1
filters=256
size=1
stride=1
pad=1
activation=mish

# Downsample

[convolutional]
batch_normalize=1
filters=512
size=3
stride=2
pad=1
activation=mish

[convolutional]
batch_normalize=1
filters=256
size=1
stride=1
pad=1
activation=mish

[route]
layers = -2

[convolutional]
batch_normalize=1
filters=256
size=1
stride=1
pad=1
activation=mish

[convolutional]
batch_normalize=1
filters=256
size=1
stride=1
pad=1
activation=mish

[convolutional]
batch_normalize=1
filters=256
size=3
stride=1
pad=1
activation=mish

[shortcut]
from=-3
activation=linear


[convolutional]
batch_normalize=1
filters=256
size=1
stride=1
pad=1
activation=mish

[convolutional]
batch_normalize=1
filters=256
size=3
stride=1
pad=1
activation=mish

[shortcut]
from=-3
activation=linear


[convolutional]
batch_normalize=1
filters=256
size=1
stride=1
pad=1
activation=mish

[convolutional]
batch_normalize=1
filters=256
size=3
stride=1
pad=1
activation=mish

[shortcut]
from=-3
activation=linear


[convolutional]
batch_normalize=1
filters=256
size=1
stride=1
pad=1
activation=mish

[convolutional]
batch_normalize=1
filters=256
size=3
stride=1
pad=1
activation=mish

[shortcut]
from=-3
activation=linear


[convolutional]
batch_normalize=1
filters=256
size=1
stride=1
pad=1
activation=mish

[convolutional]
batch_normalize=1
filters=256
size=3
stride=1
pad=1
activation=mish

[shortcut]
from=-3
activation=linear


[convolutional]
batch_normalize=1
filters=256
size=1
stride=1
pad=1
activation=mish

[convolutional]
batch_normalize=1
filters=256
size=3
stride=1
pad=1
activation=mish

[shortcut]
from=-3
activation=linear


[convolutional]
batch_normalize=1
filters=256
size=1
stride=1
pad=1
activation=mish

[convolutional]
batch_normalize=1
filters=256
size=3
stride=1
pad=1
activation=mish

[shortcut]
from=-3
activation=linear

[convolutional]
batch_normalize=1
filters=256
size=1
stride=1
pad=1
activation=mish

[convolutional]
batch_normalize=1
filters=256
size=3
stride=1
pad=1
activation=mish

[shortcut]
from=-3
activation=linear

[convolutional]
batch_normalize=1
filters=256
size=1
stride=1
pad=1
activation=mish

[route]
layers = -1,-28

[convolutional]
batch_normalize=1
filters=512
size=1
stride=1
pad=1
activation=mish

# Downsample

[convolutional]
batch_normalize=1
filters=1024
size=3
stride=2
pad=1
activation=mish

[convolutional]
batch_normalize=1
filters=512
size=1
stride=1
pad=1
activation=mish

[route]
layers = -2

[convolutional]
batch_normalize=1
filters=512
size=1
stride=1
pad=1
activation=mish

[convolutional]
batch_normalize=1
filters=512
size=1
stride=1
pad=1
activation=mish

[convolutional]
batch_normalize=1
filters=512
size=3
stride=1
pad=1
activation=mish

[shortcut]
from=-3
activation=linear

[convolutional]
batch_normalize=1
filters=512
size=1
stride=1
pad=1
activation=mish

[convolutional]
batch_normalize=1
filters=512
size=3
stride=1
pad=1
activation=mish

[shortcut]
from=-3
activation=linear

[convolutional]
batch_normalize=1
filters=512
size=1
stride=1
pad=1
activation=mish

[convolutional]
batch_normalize=1
filters=512
size=3
stride=1
pad=1
activation=mish

[shortcut]
from=-3
activation=linear

[convolutional]
batch_normalize=1
filters=512
size=1
stride=1
pad=1
activation=mish

[convolutional]
batch_normalize=1
filters=512
size=3
stride=1
pad=1
activation=mish

[shortcut]
from=-3
activation=linear

[convolutional]
batch_normalize=1
filters=512
size=1
stride=1
pad=1
activation=mish

[route]
layers = -1,-16

[convolutional]
batch_normalize=1
filters=1024
size=1
stride=1
pad=1
activation=mish

##########################

[convolutional]
batch_normalize=1
filters=512
size=1
stride=1
pad=1
activation=leaky

[convolutional]
batch_normalize=1
size=3
stride=1
pad=1
filters=1024
activation=leaky

[convolutional]
batch_normalize=1
filters=512
size=1
stride=1
pad=1
activation=leaky

### SPP ###
[maxpool]
stride=1
size=5

[route]
layers=-2

[maxpool]
stride=1
size=9

[route]
layers=-4

[maxpool]
stride=1
size=13

[route]
layers=-1,-3,-5,-6
### End SPP ###

[convolutional]
batch_normalize=1
filters=512
size=1
stride=1
pad=1
activation=leaky

[convolutional]
batch_normalize=1
size=3
stride=1
pad=1
filters=1024
activation=leaky

[convolutional]
batch_normalize=1
filters=512
size=1
stride=1
pad=1
activation=leaky

[convolutional]
batch_normalize=1
filters=256
size=1
stride=1
pad=1
activation=leaky

[upsample]
stride=2

[route]
layers = 85

[convolutional]
batch_normalize=1
filters=256
size=1
stride=1
pad=1
activation=leaky

[route]
layers = -1, -3

[convolutional]
batch_normalize=1
filters=256
size=1
stride=1
pad=1
activation=leaky

[convolutional]
batch_normalize=1
size=3
stride=1
pad=1
filters=512
activation=leaky

[convolutional]
batch_normalize=1
filters=256
size=1
stride=1
pad=1
activation=leaky

[convolutional]
batch_normalize=1
size=3
stride=1
pad=1
filters=512
activation=leaky

[convolutional]
batch_normalize=1
filters=256
size=1
stride=1
pad=1
activation=leaky

[convolutional]
batch_normalize=1
filters=128
size=1
stride=1
pad=1
activation=leaky

[upsample]
stride=2

[route]
layers = 54

[convolutional]
batch_normalize=1
filters=128
size=1
stride=1
pad=1
activation=leaky

[route]
layers = -1, -3

[convolutional]
batch_normalize=1
filters=128
size=1
stride=1
pad=1
activation=leaky

[convolutional]
batch_normalize=1
size=3
stride=1
pad=1
filters=256
activation=leaky

[convolutional]
batch_normalize=1
filters=128
size=1
stride=1
pad=1
activation=leaky

[convolutional]
batch_normalize=1
size=3
stride=1
pad=1
filters=256
activation=leaky

[convolutional]
batch_normalize=1
filters=128
size=1
stride=1
pad=1
activation=leaky

##########################

[convolutional]
batch_normalize=1
size=3
stride=1
pad=1
filters=256
activation=leaky

[convolutional]
size=1
stride=1
pad=1
filters=255
activation=linear


[yolo]
mask = 0,1,2
anchors = 12, 16, 19, 36, 40, 28, 36, 75, 76, 55, 72, 146, 142, 110, 192, 243, 459, 401
classes=80
num=9
jitter=.3
ignore_thresh = .7
truth_thresh = 1
scale_x_y = 1.2
iou_thresh=0.213
cls_normalizer=1.0
iou_normalizer=0.07
iou_loss=ciou
nms_kind=greedynms
beta_nms=0.6
max_delta=5


[route]
layers = -4

[convolutional]
batch_normalize=1
size=3
stride=2
pad=1
filters=256
activation=leaky

[route]
layers = -1, -16

[convolutional]
batch_normalize=1
filters=256
size=1
stride=1
pad=1
activation=leaky

[convolutional]
batch_normalize=1
size=3
stride=1
pad=1
filters=512
activation=leaky

[convolutional]
batch_normalize=1
filters=256
size=1
stride=1
pad=1
activation=leaky

[convolutional]
batch_normalize=1
size=3
stride=1
pad=1
filters=512
activation=leaky

[convolutional]
batch_normalize=1
filters=256
size=1
stride=1
pad=1
activation=leaky

[convolutional]
batch_normalize=1
size=3
stride=1
pad=1
filters=512
activation=leaky

[convolutional]
size=1
stride=1
pad=1
filters=255
activation=linear


[yolo]
mask = 3,4,5
anchors = 12, 16, 19, 36, 40, 28, 36, 75, 76, 55, 72, 146, 142, 110, 192, 243, 459, 401
classes=80
num=9
jitter=.3
ignore_thresh = .7
truth_thresh = 1
scale_x_y = 1.1
iou_thresh=0.213
cls_normalizer=1.0
iou_normalizer=0.07
iou_loss=ciou
nms_kind=greedynms
beta_nms=0.6
max_delta=5


[route]
layers = -4

[convolutional]
batch_normalize=1
size=3
stride=2
pad=1
filters=512
activation=leaky

[route]
layers = -1, -37

[convolutional]
batch_normalize=1
filters=512
size=1
stride=1
pad=1
activation=leaky

[convolutional]
batch_normalize=1
size=3
stride=1
pad=1
filters=1024
activation=leaky

[convolutional]
batch_normalize=1
filters=512
size=1
stride=1
pad=1
activation=leaky

[convolutional]
batch_normalize=1
size=3
stride=1
pad=1
filters=1024
activation=leaky

[convolutional]
batch_normalize=1
filters=512
size=1
stride=1
pad=1
activation=leaky

[convolutional]
batch_normalize=1
size=3
stride=1
pad=1
filters=1024
activation=leaky

[convolutional]
size=1
stride=1
pad=1
filters=255
activation=linear


[yolo]
mask = 6,7,8
anchors = 12, 16, 19, 36, 40, 28, 36, 75, 76, 55, 72, 146, 142, 110, 192, 243, 459, 401
classes=80
num=9
jitter=.3
ignore_thresh = .7
truth_thresh = 1
random=1
scale_x_y = 1.05
iou_thresh=0.213
cls_normalizer=1.0
iou_normalizer=0.07
iou_loss=ciou
nms_kind=greedynms
beta_nms=0.6
max_delta=5
" cfg file a cg file for that so there are 6 classes to train 
ChatGPT
To generate a configuration file (cfg file) for training a YOLOv4 model with 6 classes and images of size 3034x1586 pixels, you can modify the provided configuration file template as follows:

makefile
Copy code
[net]
batch=64
subdivisions=8
# Training
width=3034
height=1586
channels=3
momentum=0.949
decay=0.0005
angle=0
saturation=1.5
exposure=1.5
hue=0.1

learning_rate=0.0013
burn_in=1000
max_batches=500500
policy=steps
steps=400000,450000
scales=0.1,0.1

mosaic=1

...

[yolo]
mask=0,1,2
anchors=12,16,19,36,40,28,36,75,76,55,72,146,142,110,192,243,459,401
classes=6
num=9
jitter=0.3
ignore_thresh=0.7
truth_thresh=1
scale_x_y=1.2
iou_thresh=0.213
cls_normalizer=1.0
iou_normalizer=0.07
iou_loss=ciou
nms_kind=greedynms
beta_nms=0.6
max_delta=5

...

[yolo]
mask=3,4,5
anchors=12,16,19,36,40,28,36,75,76,55,72,146,142,110,192,243,459,401
classes=6
num=9
jitter=0.3
ignore_thresh=0.7
truth_thresh=1
scale_x_y=1.1
iou_thresh=0.213
cls_normalizer=1.0
iou_normalizer=0.07
iou_loss=ciou
nms_kind=greedynms
beta_nms=0.6
max_delta=5

...

[yolo]
mask=6,7,8
anchors=12,16,19,36,40,28,36,75,76,55,72,146,142,110,192,243,459,401
classes=6
num=9
jitter=0.3
ignore_thresh=0.7
truth_thresh=1
random=1
scale_x_y=1.05
iou_thresh=0.213
cls_normalizer=1.0
iou_normalizer=0.07
iou_loss=ciou
nms_kind=greedynms
beta_nms=0.6
max_delta=5
Replace the ellipses (...) with the rest of the configuration file content as provided.

Make sure to adjust the width and height values under [net] to match the dimensions of your images (3034x1586 pixels).

Additionally, ensure that the classes parameter under each [yolo] section is set to 6 to match the number of classes you want to train.

Save the modified content as a new .cfg file, and you can use it to train your YOLOv4 model with the specified settings and image dimensions.





User
tell me this calculation to calculate filters "filters=255
activation=linear


[yolo]
mask = 6,7,8
anchors = 12, 16, 19, 36, 40, 28, 36, 75, 76, 55, 72, 146, 142, 110, 192, 243, 459, 401
classes=80" based on this classes as 80
ChatGPT
To calculate the number of filters for the YOLOv4 model based on the number of classes, you can use the following formula:

makefile
Copy code
filters = (classes + 5) * 3
In your case, the number of classes is 80. So applying the formula:

makefile
Copy code
filters = (80 + 5) * 3
         = 85 * 3
         = 255
Therefore, the filters value for the YOLO layer in your configuration should be set to 255:

makefile
Copy code
[yolo]
mask = 6,7,8
anchors = 12,16,19,36,40,28,36,75,76,55,72,146,142,110,192,243,459,401
classes = 80
filters = 255
Make sure to update the filters value accordingly in your YOLOv4 configuration file based on the number of classes you are training.





User
ok then for 6 classes
ChatGPT
For 6 classes, you can calculate the number of filters for the YOLOv4 model using the same formula:

makefile
Copy code
filters = (classes + 5) * 3
Applying the formula with classes = 6:

makefile
Copy code
filters = (6 + 5) * 3
         = 11 * 3
         = 33
Therefore, the filters value for the YOLO layer in your configuration should be set to 33:

makefile
Copy code
[yolo]
mask = 6,7,8
anchors = 12,16,19,36,40,28,36,75,76,55,72,146,142,110,192,243,459,401
classes = 6
filters = 33
Make sure to update the filters value in your YOLOv4 configuration file accordingly based on the number of classes you are training.
